DS_Project/AI_backend/best_model.pth (torch, 61666 bytes, 21 tensors)

fc1.weight f4 [128, 16]
0	0xbe149592	-0.14510182
1	0xbe897182	-0.26844412
2	0xbdb92abd	-0.09041355
3	0x3e6f2128	0.23352492
4	0x3e837e6b	0.25682387
5	0xbe749a36	-0.23886952
6	0x3cd833a6	0.026391815
7	0xbe118a05	-0.14212807
8	0xbe82ae54	-0.25523627
9	0x3dd32f29	0.103117295
10	0x3dbd4efb	0.0924358
11	0xbe518ec1	-0.20464613
12	0x3d844306	0.06458096
13	0x3e8ae115	0.2712485
14	0x3bdf54ab	0.006815513
15	0xbeca2442	-0.39480788
16	0x3e257d2c	0.1616103
17	0xbb116b11	-0.002218906
18	0xbe9cdd67	-0.30637667
19	0xbe0432fb	-0.12910073
20	0xbda464ac	-0.08027014
21	0x3d90c4e3	0.07068803
22	0xbe49cc01	-0.19706728
23	0x3cf29e07	0.029616369
24	0xbe573c9e	-0.21019217
25	0x3d8e418f	0.06946098
26	0xbe806faf	-0.25085208
27	0xbebe1ebf	-0.37132832
28	0xbe1451c5	-0.14484318
29	0x3e7e8d63	0.24858622
30	0xbe0e6b81	-0.13908197
31	0xbe818598	-0.25297236
32	0x3e958dbf	0.29209706
33	0x3e079b9f	0.13242958
34	0xbdcabfc0	-0.09899855
35	0xbe88158c	-0.2657894
36	0x3d40682d	0.04697435
37	0x3de168a1	0.110062845
38	0xbd755d63	-0.059903514
39	0x3e0ea93d	0.13931747
40	0xbdb6cb24	-0.08925465
41	0x3e30c61e	0.17263076
42	0x3e231282	0.15925029
43	0xbede47c4	-0.43414128
44	0xbcdc25b5	-0.026873449
45	0x3e5d2fdd	0.2160029
46	0xbea46a90	-0.3211255
47	0xbe03125a	-0.1279997
48	0x3eab363b	0.33439812
49	0xbd7bb4c0	-0.061451674
50	0xbd94b30f	-0.07260715
51	0x3ea72f0b	0.32653078
52	0x3d29148e	0.041279368
53	0xbd8f3572	-0.06992616
54	0xbe74c661	-0.239038
55	0x3ba4f3f3	0.005033964
56	0xbe337f09	-0.17528929
57	0xbe00f4f3	-0.1259344
58	0x3c0657de	0.00819966
59	0x3e31cc0e	0.17362997
60	0x3e14ea46	0.14542493
61	0x3a9e64c1	0.001208447
62	0xbdfb6572	-0.122752085
63	0xbe2fd2b8	-0.17170227
64	0xbe4bc722	-0.19900182
65	0x3e6fd15d	0.2341971
66	0xbe378cf1	-0.17924859
67	0x3e4fdb42	0.20298484
68	0xbe8a9b4a	-0.270716
69	0xbe1536a8	-0.14571631
70	0x3db3eca1	0.08785368
71	0xbe1f5701	-0.15560533
72	0xbd882902	-0.066484466
73	0xbe147fed	-0.14501925
74	0xbe036829	-0.12832703
75	0xbd4603b6	-0.048343383
76	0x3dfcdb32	0.12346496
77	0x3e9214a2	0.28531367
78	0x3ebdf0d9	0.37097815
79	0x3dd1e4e2	0.10248734
80	0x3e23db57	0.1600164
81	0xbe7f1941	-0.24911977
82	0xbdb89460	-0.09012675
83	0x3e197204	0.149849
84	0xbdf460db	-0.11932536
85	0xbe96ec43	-0.29477128
86	0x3d32d9ea	0.04366485
87	0xbddf7d0c	-0.10912523
88	0xbe7c33ce	-0.24629137
89	0x3c61b9c3	0.013777199
90	0x3dbee0e9	0.09320242
91	0x3ebae9a8	0.3650639
92	0x3e698b8f	0.22807144
93	0xbdaf5263	-0.08560636
94	0xbe12163e	-0.14266297
95	0x3ee03855	0.43792978
96	0xbe0f3986	-0.13986787
97	0xbb736d04	-0.0037143836
98	0xbd73f2a4	-0.059557572
99	0x3f0d77df	0.55261034
100	0x3b11ff2b	0.0022277336
101	0x3e0ff86a	0.14059606
102	0xbe2536e6	-0.16134223
103	0x3a001bc6	0.0004886951
104	0xbd173f58	-0.036925644
105	0x3e1ce715	0.15322526
106	0x3c6bc872	0.014391052
107	0x3e8231dc	0.25428665
108	0xba27004d	-0.0006370589
109	0x3e3f1f85	0.18664367
110	0xbe68f511	-0.22749735
111	0x3d58782f	0.05284899
112	0x3e8fdee9	0.28099754
113	0xbe83e8a0	-0.25763416
114	0xbe6a63da	-0.22889653
115	0xbdb98ba1	-0.09059835
116	0xbe920c01	-0.28524783
117	0xbe5c80a2	-0.21533445
118	0xbba1eed0	-0.0049417987
119	0x3dd41b9e	0.1035683
120	0xbe63db91	-0.22251727
121	0x3dbb8f67	0.09158211
122	0xbd0f6cdc	-0.035015926
123	0xbd5064d2	-0.0508774
124	0xbc602e30	-0.013682887
125	0x3e82dfbf	0.2556133
126	0xbe2b82fe	-0.16749188
127	0xbecce18d	-0.40015832
128	0x3ea828f7	0.32843754
129	0xbd9257c9	-0.0714565
130	0x3db5fb5a	0.08885832
131	0x3cc40c5e	0.023931678
132	0xbea07d86	-0.31345767
133	0x3df6378e	0.12022315
134	0x3e2aca9e	0.16678855
135	0xbdd7ecca	-0.10543211
136	0x3e33a8dc	0.17544883
137	0x3e43e1e2	0.19129136
138	0x3d73c850	0.059517205
139	0xbeb1877e	-0.34673685
140	0x3e1671ea	0.14691892
141	0xbec70147	-0.38868162
142	0x3e47dec6	0.19518575
143	0xbda24a91	-0.07924379
144	0xbe097704	-0.13424307
145	0xbd0ebb97	-0.03484687
146	0xbe26fa50	-0.16306424
147	0xbee49ca4	-0.44650757
148	0x3e38d58d	0.18050213
149	0xbe3077c1	-0.17233182
150	0x3d88e11f	0.066835634
151	0xbdee6cae	-0.11641823
152	0x3de46121	0.11151338
153	0xbcb0e241	-0.021592261
154	0x3d70d4f7	0.05879685
155	0x3d581cfc	0.052762017
156	0xbd4b4148	-0.049622804
157	0xbe893ed2	-0.2680574
158	0xbdf3fb94	-0.11913219
159	0xbe2d3f03	-0.16918568
160	0xbd7fb2c1	-0.062426332
161	0xbccab3fb	-0.024744025
162	0xbd0aecc3	-0.0339172
163	0x3e1cb3f9	0.15303029
164	0xbe073809	-0.1320497
165	0x3e78069b	0.2422127
166	0x3e69f911	0.22848918
167	0xbc9641b5	-0.018341878
168	0xbd5745db	-0.052556854
169	0x3e09852e	0.1342971
170	0xbe2b2e2e	-0.16716835
171	0xbc9d9830	-0.019237608
172	0x3da727aa	0.08161862
173	0x3e7a10b1	0.2442043
174	0x3eca8fa5	0.39562717
175	0xbe8f9f65	-0.28051296
176	0x3effa06d	0.49927083
177	0x3e0a1f47	0.13488494
178	0x3df86702	0.12129022
179	0x3d7dd9b3	0.061975192
180	0x3df59013	0.119903706
181	0x3e60c305	0.21949394
182	0xbcad0bd8	-0.021123812
183	0x3b8eba4d	0.004355705
184	0x3e024366	0.12721023
185	0xbdda6efc	-0.106657
186	0xbc0d32a8	-0.008618034
187	0x3eaa7e98	0.33299708
188	0x3c548918	0.012972139
189	0x3dfe40cd	0.124147035
190	0x3e35b0bd	0.17743202
191	0xbecf87a7	-0.40533182
192	0xbd9f56c5	-0.07780222
193	0x3e653d95	0.22386773
194	0xbdb3484c	-0.08754024
195	0xbef02240	-0.4690113
196	0xbe606f05	-0.2191735
197	0x3e36a19b	0.17835085
198	0xbe26457b	-0.16237442
199	0xbe00dfb4	-0.12585336
200	0x3e8cae62	0.27476794
201	0x3b5a6b4c	0.0033328114
202	0x3b8abb01	0.0042337184
203	0xbe063a72	-0.13108233
204	0x3a211bd7	0.0006145811
205	0xbe291695	-0.1651252
206	0x3e88af6b	0.26696333
207	0x3d9bd8a2	0.07609679
208	0x3e48659a	0.19570008
209	0x3de84e60	0.11343074
210	0xbdd6991b	-0.10478421
211	0xbeabbf2b	-0.33544287
212	0x3db55c94	0.088555485
213	0xbd8a15f1	-0.06742466
214	0x3e59fc40	0.21287632
215	0x3ccdd4e3	0.025125926
216	0x3d76ba47	0.06023624
217	0xbd914406	-0.070930526
218	0x3c28de0d	0.010306847
219	0xbe024c6a	-0.12724462
220	0xbdd0ba0b	-0.10191735
221	0xbd4b571b	-0.049643617
222	0x3ebf039e	0.37307447
223	0xbe8e2698	-0.2776382
224	0xbe649665	-0.22322996
225	0xbda87156	-0.08224742
226	0xbe974748	-0.2954657
227	0x3d43894c	0.04773836
228	0x3db845a2	0.089976564
229	0xbe17e7d2	-0.14834526
230	0xbecbc8e0	-0.39801693
231	0x3dcaf235	0.099094786
232	0xbdcb7c6e	-0.099358425
233	0xbd40574d	-0.046958257
234	0x3cf46029	0.029831009
235	0x3e2efe58	0.17089212
236	0x3d1d7673	0.03844304
237	0xbe40b75b	-0.18819945
238	0x3dce9530	0.10087049
239	0xbf0bea5c	-0.5465448
240	0xbd743db3	-0.059629153
241	0x3d821b66	0.06352882
242	0xbdfa4e18	-0.122219265
243	0xbe8c4807	-0.27398703
244	0x3e176fbb	0.14788716
245	0xbe3ab586	-0.18233308
246	0xbeb70424	-0.35745347
247	0x3e1b741a	0.15181008
248	0xbddc91fd	-0.107700326
249	0x3e73b0ad	0.23797865
250	0xbc69bd60	-0.014266342
251	0x3e701ccd	0.23448487
252	0x3af06522	0.0018340687
253	0x3e604d88	0.21904576
254	0xbdb1e83f	-0.086868756
255	0x3d7330b5	0.059372623

fc1.bias f4 [128]
0	0x3d1ffef8	0.039061517
1	0x3dc657a1	0.09684683
2	0x3e065d8e	0.13121626
3	0xbd3f8c65	-0.04676475
4	0xbe3f44d2	-0.18678597
5	0xbe63b0f7	-0.22235475
6	0x3e6a8f10	0.22906137
7	0xbda433d0	-0.08017695
8	0xbd55bbe3	-0.052181136
9	0x3e78d38e	0.24299452
10	0xbe2dc4a1	-0.16969539
11	0x3e1ee2f2	0.1551626
12	0xbe82d47d	-0.2555274
13	0x3eb1a5ee	0.34696907
14	0xbe600997	-0.21878658
15	0xbe2defdc	-0.1698603
16	0xbce2bb81	-0.0276773
17	0x3e716be4	0.23576313
18	0x3c4b3c53	0.012404519
19	0xbc5d641a	-0.013512636
20	0x3dd00767	0.10157662
21	0x3e3b7090	0.18304658
22	0xbe135bbd	-0.14390464
23	0xbe0a191d	-0.13486142
24	0xbe543cd6	-0.20726332
25	0x3e27fbf5	0.16404708
26	0xbe09f91f	-0.13473938
27	0xbce82216	-0.028336566
28	0xbe6001d3	-0.21875696
29	0xbdb43dfe	-0.088008866
30	0x3e865930	0.2623992
31	0x3e7ef6c1	0.24898817
32	0x3dda33f7	0.10654443
33	0x3e4033a3	0.18769698
34	0xbe32e34c	-0.1746952
35	0xbe53152d	-0.20613547
36	0x3de3c949	0.111223765
37	0xbe2ca181	-0.16858484
38	0xbd043fd2	-0.032287426
39	0x3db0be81	0.08630086
40	0x3d1a30f3	0.037644338
41	0xbe10a9f4	-0.14127332
42	0xbcc7d879	-0.024395214
43	0x3923ee4e	0.00015633667
44	0xbeb003f4	-0.34378016
45	0x3db3dc55	0.087822594
46	0x3d5c08b7	0.05371925
47	0xbcf77c4d	-0.030210638
48	0x3bb65dcd	0.005565381
49	0x3e4d0215	0.20020325
50	0x3ebc5763	0.3678542
51	0xbd9ff9d7	-0.07811325
52	0xbd6b4d9c	-0.05744706
53	0xbcc9a4c1	-0.024614694
54	0xbea5e586	-0.32401675
55	0xbd5fbdd5	-0.054624397
56	0x3e8bd0c8	0.27307725
57	0x3e8dc890	0.2769208
58	0x3e6e5853	0.2327588
59	0x3ca6fe27	0.020384861
60	0x3e808b62	0.2510634
61	0x3e8dda25	0.27705494
62	0xbe09829c	-0.1342873
63	0xb9522653	-0.00020041438
64	0x3d36ad84	0.04459907
65	0x3e3652a4	0.17804962
66	0x3e3c47cb	0.18386762
67	0x3e90dd55	0.28293863
68	0x3e6ceef1	0.23138024
69	0xbf010be4	-0.5040877
70	0xbd61cd9a	-0.055127718
71	0x3e489eed	0.19591875
72	0xbe03cec6	-0.12871847
73	0xbddbef48	-0.10738999
74	0xbe5ab474	-0.213579
75	0xbe3b01f4	-0.18262464
76	0xbe037261	-0.12836601
77	0x3e36c5a3	0.1784883
78	0xbd5d533d	-0.05403446
79	0xbd42f251	-0.047594372
80	0x3e8ca75f	0.27471444
81	0xbe1c56f1	-0.1526754
82	0x3d5691d2	0.05238516
83	0xbd102bc9	-0.035198007
84	0x3e007b53	0.12547044
85	0x3b94089c	0.004517628
86	0x3ebf3e3b	0.37352166
87	0xbd2b2476	-0.04178282
88	0x3d02c000	0.031921387
89	0xbdc6d7be	-0.09709118
90	0xbc70933b	-0.01468354
91	0xbe079058	-0.13238657
92	0xbe7bcc3a	-0.24589625
93	0x3daf8d15	0.08571831
94	0xbd20f21f	-0.039293405
95	0x3d5f7731	0.05455703
96	0x3d0d7f65	0.03454532
97	0xbcb0d447	-0.021585597
98	0xbdddc05f	-0.108277075
99	0x3b9564f0	0.004559152
100	0x3dd78fa8	0.10525447
101	0xbd4ae16c	-0.049531385
102	0xbea4d73f	-0.3219547
103	0xbe41b9bd	-0.1891851
104	0x3e31957a	0.17342177
105	0xbeae0d4c	-0.3399452
106	0xbddd73e5	-0.10813121
107	0x3da45758	0.08024472
108	0x3c50fe9e	0.012756018
109	0x3e1bf491	0.15230013
110	0x3dd77d5e	0.10521959
111	0x3d52f510	0.05150324
112	0xbe4171c8	-0.1889106
113	0x3db92029	0.09039337
114	0xbe331fa9	-0.17492546
115	0x3e84f12c	0.2596525
116	0x3eb32905	0.34992233
117	0xbd939907	-0.07206922
118	0xbe9d4a89	-0.30720928
119	0x3e12c995	0.1433471
120	0x3e5d2180	0.2159481
121	0xbda7af2c	-0.08187708
122	0xbe3affe9	-0.18261684
123	0x3daaa2dd	0.08331845
124	0xbe07e12e	-0.13269493
125	0x3ca1a652	0.019732628
126	0xbd6b3ba7	-0.057429936
127	0x3d4b03b6	0.049564086

bn1.weight f4 [128]
0	0x3f1cf942	0.6131784
1	0x3f29c782	0.6632005
2	0x3f4e2d44	0.8053782
3	0x3f5c817a	0.86135066
4	0x3f378c7f	0.71698755
5	0x3f3872d0	0.7205019
6	0x3f57aa8c	0.8424461
7	0x3f58a688	0.84629107
8	0x3f2978c5	0.66199905
9	0x3f391e70	0.7231207
10	0x3f5e6b34	0.8688233
11	0x3f28d0e7	0.6594376
12	0x3f50d6ae	0.81577575
13	0x3f5db37c	0.86601996
14	0x3f685cff	0.907669
15	0x3f25eb13	0.6481182
16	0x3f350221	0.70706373
17	0x3f629e55	0.88522846
18	0x3f48d4db	0.7844979
19	0x3f46a1f6	0.7759088
20	0x3f64e3b7	0.89409965
21	0x3f596c18	0.8493056
22	0x3f144b1e	0.5792712
23	0x3f5483e5	0.83013755
24	0x3f380158	0.7187705
25	0x3f205357	0.62627167
26	0x3f4260b4	0.7592881
27	0x3f1f9b82	0.6234666
28	0x3f70d262	0.9407102
29	0x3f508415	0.8145154
30	0x3f2fb6ed	0.686385
31	0x3f29c99e	0.6632327
32	0x3f3d68ac	0.7398784
33	0x3f4ed70a	0.80796874
34	0x3f396833	0.7242462
35	0x3f307677	0.68930763
36	0x3f1bc83f	0.60852426
37	0x3f3a3d8a	0.7275015
38	0x3f3cc355	0.73735553
39	0x3f354af0	0.7081747
40	0x3f3886b8	0.72080564
41	0x3f502204	0.81301904
42	0x3f357c21	0.7089253
43	0x3f318d21	0.6935597
44	0x3f69ff3a	0.9140507
45	0x3f25cfd0	0.6477022
46	0x3f41fb92	0.7577449
47	0x3f52be21	0.82321364
48	0x3f3ba228	0.73294306
49	0x3f1ef2b5	0.6208909
50	0x3f6f373a	0.93443644
51	0x3f2495e6	0.64291227
52	0x3f357b7a	0.70891535
53	0x3f48c954	0.784322
54	0x3f389bee	0.7211293
55	0x3f3adda4	0.72994447
56	0x3f330805	0.6993411
57	0x3f3edb38	0.7455325
58	0x3f350748	0.70714235
59	0x3f137e4c	0.5761459
60	0x3f4ae3ab	0.79253644
61	0x3f842177	1.0322713
62	0x3f4378e4	0.7635634
63	0x3f241654	0.6409657
64	0x3f285959	0.65761334
65	0x3f47dcef	0.7807149
66	0x3f353db2	0.70797265
67	0x3f205fad	0.6264599
68	0x3f598f55	0.8498433
69	0x3f38a713	0.72129935
70	0x3f4ac1a3	0.79201716
71	0x3f37ed2b	0.71846265
72	0x3f4bcd89	0.79610497
73	0x3f359a62	0.70938694
74	0x3f47397c	0.7782209
75	0x3f2c62ab	0.67338055
76	0x3f3fac86	0.74872625
77	0x3f35c7a6	0.71007764
78	0x3f5fc7a1	0.87413985
79	0x3f5f617a	0.8725811
80	0x3f582ac7	0.84440273
81	0x3f5ce778	0.86290693
82	0x3f4647ed	0.774535
83	0x3f518ca2	0.81855214
84	0x3f1a8d50	0.60371876
85	0x3f2fc50a	0.6866003
86	0x3f313f39	0.69237095
87	0x3f4daaa5	0.8033851
88	0x3f425b09	0.7592016
89	0x3f511558	0.8167319
90	0x3f34fcde	0.70698345
91	0x3f3cb50b	0.7371375
92	0x3f269a0f	0.65078825
93	0x3f3ad787	0.7298512
94	0x3f3a81dc	0.728544
95	0x3f36a2a3	0.71341914
96	0x3f414dad	0.7550915
97	0x3f4626ce	0.7740296
98	0x3f261bc7	0.64886135
99	0x3f5e1e8a	0.8676535
100	0x3f5b10e5	0.85572654
101	0x3f332f04	0.69993615
102	0x3f51e19a	0.81984866
103	0x3f5e7b9a	0.8690735
104	0x3f7e7b7e	0.99407184
105	0x3f359066	0.7092346
106	0x3f4a22f6	0.78959596
107	0x3f49d733	0.7884399
108	0x3f41867b	0.75595826
109	0x3f2d0be8	0.6759629
110	0x3f371b0d	0.7152565
111	0x3f3bdc4e	0.73383033
112	0x3f3975e3	0.72445506
113	0x3f3510dd	0.70728856
114	0x3f4ee0fd	0.80812055
115	0x3f247b8c	0.6425102
116	0x3f3cf4e4	0.73811173
117	0x3f43e87c	0.7652662
118	0x3f31c89d	0.69446737
119	0x3f370bb6	0.71502244
120	0x3f5946eb	0.8487384
121	0x3f50e0c5	0.8159297
122	0x3f1ff9a5	0.624903
123	0x3f320975	0.6954568
124	0x3f35b39e	0.709772
125	0x3f248544	0.6426585
126	0x3f5b9fb7	0.8579058
127	0x3f656d95	0.89620334

bn1.bias f4 [128]
0	0xbbf21394	-0.007387588
1	0xbe2aaf5f	-0.16668461
2	0xbea8fd23	-0.33005628
3	0xbf10ce99	-0.56565243
4	0xbe48c7ea	-0.19607511
5	0xbef103e2	-0.47073275
6	0xbf149701	-0.58042914
7	0xbefb28c7	-0.49054548
8	0xbec26e51	-0.3797479
9	0xbe3477e1	-0.17623855
10	0xbe801be8	-0.2502129
11	0xbe9d1591	-0.30680516
12	0xbe3584d8	-0.17726457
13	0xbe731dc5	-0.23741825
14	0xbee53924	-0.44770157
15	0xbe293c39	-0.1652688
16	0xbeb6b413	-0.3568426
17	0xbe9e6700	-0.30937958
18	0xbf03b72e	-0.51451385
19	0xbe1b0edc	-0.15142387
20	0xbee66f8a	-0.45006973
21	0xbebcb4fd	-0.36856833
22	0x3c0f9ad9	0.008764946
23	0xbe82bfee	-0.25537056
24	0xbec43248	-0.38319612
25	0xbe99d889	-0.30048016
26	0xbecbe71b	-0.39824757
27	0xbee62b10	-0.4495473
28	0xbe890b3b	-0.2676638
29	0xbefc3eaf	-0.49266574
30	0xbeb0d34c	-0.34536207
31	0xbdeabea7	-0.11462145
32	0xbf108dd3	-0.56466407
33	0xbe4cab4c	-0.1998722
34	0xbe9f4f63	-0.31115255
35	0xbe1ca084	-0.15295607
36	0xbebab20a	-0.36463958
37	0xbf00ac55	-0.5026296
38	0xbe042dea	-0.1290814
39	0xbe8ea83f	-0.27862737
40	0xbe96e972	-0.2947498
41	0xbea32b5f	-0.31869027
42	0xbe178eb3	-0.14800529
43	0xbefb4881	-0.49078754
44	0xbe70654a	-0.23476139
45	0xbe502166	-0.2032524
46	0xbdfd05b0	-0.123546004
47	0xbeb22aa2	-0.3479815
48	0xbe9543b8	-0.29153228
49	0xbd8141a1	-0.06311346
50	0xbeb23b26	-0.34810752
51	0x3dcff38f	0.10153877
52	0xbd838599	-0.06421966
53	0xbed198bf	-0.4093685
54	0xbe43f79c	-0.19137424
55	0xbd585ee3	-0.052824866
56	0xbed18dd6	-0.40928525
57	0xbe413760	-0.1886878
58	0xbf041d00	-0.5160675
59	0xbf166ad7	-0.58756775
60	0xbe7bdec8	-0.24596703
61	0xbefd6fb8	-0.49499297
62	0xbec23278	-0.3792913
63	0xbec4cb48	-0.3843634
64	0xbf066378	-0.5249553
65	0xbead3e50	-0.33836603
66	0xbecb271e	-0.39678282
67	0xbefe9f17	-0.4973075
68	0xbea483ef	-0.32131907
69	0xbf01d6d2	-0.50718415
70	0xbeec82fb	-0.4619368
71	0xbe7e7b92	-0.24851826
72	0xbeecb2d7	-0.46230194
73	0xbeed4076	-0.46338242
74	0xbec58340	-0.38576698
75	0xbebcf21f	-0.36903474
76	0xbeebb7c7	-0.46038648
77	0xbef16713	-0.47148952
78	0xbebb3362	-0.3656264
79	0xbee9428c	-0.45558584
80	0xbe8bcf12	-0.2730642
81	0xbe9a5327	-0.30141565
82	0xbe9566cd	-0.29179993
83	0xbec623ff	-0.38699338
84	0xbe7490b9	-0.23883332
85	0xbebea99f	-0.37238786
86	0xbef3d27d	-0.47621527
87	0xbe971db2	-0.29514843
88	0xbebafff9	-0.36523417
89	0xbecbd477	-0.39810535
90	0xbe95486a	-0.2915681
91	0xbed7b7c5	-0.42132393
92	0xbe6868a0	-0.22696161
93	0xbe226361	-0.15858223
94	0xbe922cc1	-0.2854977
95	0xbe4612b9	-0.1934308
96	0xbe8d05ef	-0.2754359
97	0xbe90f383	-0.28310785
98	0xbecd7773	-0.40130195
99	0xbeb0b2b5	-0.34511343
100	0xbedd3e9a	-0.43211824
101	0xbecf1773	-0.40447578
102	0xbe73dcc0	-0.23814678
103	0xbebcba8e	-0.3686108
104	0xbef75c19	-0.48312452
105	0xbf032a64	-0.5123656
106	0xbe4e5897	-0.20150982
107	0xbec98140	-0.39356422
108	0xbee2a005	-0.4426271
109	0xbe689300	-0.22712326
110	0xbddec1c0	-0.10876799
111	0xbe91f81f	-0.28509614
112	0xbec94e93	-0.3931776
113	0xbee8632c	-0.45388162
114	0xbeb8376b	-0.3597978
115	0xbeaa73d3	-0.33291492
116	0xbe593c7d	-0.2121448
117	0xbe423cd5	-0.18968518
118	0xbe8dd174	-0.27698863
119	0xbf0ae008	-0.54248095
120	0xbebbfafd	-0.36714926
121	0xbe9efe81	-0.31053546
122	0xbe0655f5	-0.13118728
123	0xbea6c1bd	-0.32569686
124	0xbf30052a	-0.6875788
125	0xbecc1cd9	-0.3986576
126	0xbef472b3	-0.4774376
127	0xbe479563	-0.1949058

bn1.running_mean f4 [128]
0	0xbeed796a	-0.46381694
1	0xbee4b69e	-0.44670576
2	0x3e094e91	0.13408877
3	0x3cb2e8f1	0.02183959
4	0xbe22a427	-0.15882932
5	0xbe909dc3	-0.28245363
6	0x3eee4976	0.4654042
7	0xbef93816	-0.48675603
8	0x3e994028	0.2993176
9	0xbea8327f	-0.32851025
10	0x3e37a2e2	0.17933229
11	0x3f77c1a5	0.96779853
12	0xbed7a8f9	-0.42121103
13	0x3ee94392	0.45559365
14	0xbf7369a6	-0.9508308
15	0xbee23b44	-0.4418584
16	0x3f2d61f1	0.6772757
17	0x3eae7d66	0.34080046
18	0xbee20f5a	-0.44152337
19	0xbea7d743	-0.3278142
20	0x3df72026	0.12066679
21	0x3f1bebce	0.60906684
22	0x3e058ac6	0.13041219
23	0x3dac0963	0.08400228
24	0xbf4c8b6d	-0.79900247
25	0x3d1d3a54	0.038385704
26	0xbed0add6	-0.40757626
27	0x3ee0ced6	0.43907803
28	0x3d8f46cc	0.06995925
29	0xbe52a609	-0.2057115
30	0xbe262f08	-0.16228878
31	0x3e94dcd1	0.2907472
32	0x3f7cc0fb	0.98731965
33	0xbd7b6b3e	-0.06138157
34	0xbdcb1972	-0.09916963
35	0x3daf514e	0.085604295
36	0x3f852a12	1.0403464
37	0xbed6fa78	-0.41987967
38	0xbf0ab510	-0.5418253
39	0xbe723f1b	-0.23656885
40	0xbe781520	-0.24226809
41	0x3d01e51a	0.03171263
42	0xbcf01731	-0.029307934
43	0xbbaaeea0	-0.0052164346
44	0xbecf303a	-0.4046648
45	0xbe071d41	-0.13194753
46	0xbeda5973	-0.4264637
47	0x3e55e741	0.20888998
48	0xbf4d203a	-0.801273
49	0xbe93c0b4	-0.28857958
50	0x3f069ff9	0.5258785
51	0xbf54ddbf	-0.8315086
52	0x3ea0c01b	0.31396565
53	0xbea9df9a	-0.33178407
54	0xbe12eb11	-0.14347483
55	0xbf090c52	-0.53534424
56	0x3f311e02	0.69186413
57	0x3f015471	0.5051947
58	0xbe883f29	-0.26610687
59	0xbdbc4d61	-0.09194446
60	0xbe67edfa	-0.22649375
61	0x3f02bb26	0.51066816
62	0xbe784652	-0.24245575
63	0xbe7aee08	-0.24504864
64	0x3e679814	0.22616607
65	0x3ddd9d5d	0.1082103
66	0x3f02de5c	0.51120543
67	0x3f059a15	0.52188236
68	0x3f01c40d	0.50689775
69	0xbec9c88a	-0.39410812
70	0x3c390650	0.011293009
71	0xbe87b34e	-0.26503986
72	0xbe89b7ba	-0.26897985
73	0x3e0ee3d9	0.13954104
74	0x3e6ba939	0.23013772
75	0x3d58a827	0.052894738
76	0x3f1b2e76	0.6061777
77	0xbc9742db	-0.018464496
78	0x3e162d43	0.14665703
79	0x3e410cd9	0.18852557
80	0x3eca9bd6	0.39572018
81	0x3e27e8ee	0.1639745
82	0xbcea57f1	-0.028606387
83	0x3f1793ec	0.59210086
84	0x3ed53baf	0.41647097
85	0x3f086c18	0.5328994
86	0x3d97ed56	0.07418315
87	0x3db143fc	0.08655545
88	0x3ed9975e	0.42498296
89	0x3f0cefb8	0.5505328
90	0xbef937ac	-0.48675287
91	0xbe86a692	-0.26298958
92	0xbf21f5ea	-0.6326586
93	0xbefa4831	-0.48883203
94	0xbdf8a16e	-0.12140165
95	0xbef5ae55	-0.47984567
96	0xbf63d2e2	-0.88993657
97	0xbd58dda8	-0.052945763
98	0x3f142a2d	0.57876855
99	0x3b44c122	0.0030022343
100	0x3ee6866b	0.45024428
101	0x3c9514c1	0.018198373
102	0xbee83a84	-0.45357144
103	0x3e2eaf60	0.17059088
104	0x3f04be23	0.51852626
105	0xbf000b10	-0.5001688
106	0x3ed422f0	0.41432905
107	0xbdcdd969	-0.10051233
108	0x3daced89	0.08443744
109	0x3ebc350d	0.36759225
110	0xbe13db6f	-0.14439176
111	0xbd9f1bd4	-0.0776898
112	0x3eafa833	0.34308013
113	0x3f0b5384	0.5442431
114	0xbddcfb82	-0.10790159
115	0xbd76e14d	-0.060273457
116	0x3ef1f4ad	0.47256985
117	0xbed3e84c	-0.41388166
118	0xbe7594ba	-0.23982516
119	0xbd992f81	-0.07479764
120	0x3f090935	0.53529674
121	0xbdf4d259	-0.11954183
122	0xbe809727	-0.2511532
123	0xbeed7fc8	-0.46386552
124	0xbf224b3d	-0.63396055
125	0x3e29bc17	0.16575657
126	0x3d72c1d4	0.05926688
127	0x3eeeef62	0.4666701

bn1.running_var f4 [128]
0	0x3c48aa0c	0.012247574
1	0x3c79c591	0.015244857
2	0x3c4951d7	0.012287579
3	0x3c799815	0.015234013
4	0x3ca9770f	0.020686654
5	0x3c885325	0.016641209
6	0x3bff5f6b	0.007793357
7	0x3be1adaf	0.00688716
8	0x3cc6fd10	0.024290591
9	0x3c339515	0.010960837
10	0x3c69cac9	0.014269539
11	0x3cb28e67	0.021796418
12	0x3cf5bac3	0.029996281
13	0x3c71ffb0	0.014770433
14	0x3caf2740	0.02138102
15	0x3ceaad55	0.028647104
16	0x3d01d0a7	0.031693127
17	0x3c79a1db	0.015236343
18	0x3cbd84ee	0.023134675
19	0x3ceb53ea	0.028726537
20	0x3c79560a	0.015218267
21	0x3c1febcb	0.009760807
22	0x3d36d016	0.04463204
23	0x3c86f9b1	0.016476484
24	0x3c59e1f8	0.013298504
25	0x3cc35527	0.023844315
26	0x3c61392d	0.013746542
27	0x3ca498b0	0.020092338
28	0x3bc710a1	0.0060749804
29	0x3bf64c86	0.0075164465
30	0x3c6e4104	0.014541868
31	0x3cba75d4	0.022761263
32	0x3c9d0954	0.019169487
33	0x3c3a4725	0.011369501
34	0x3c26803c	0.010162409
35	0x3cb694cb	0.022287747
36	0x3cd8e87e	0.026478048
37	0x3c5b3d9a	0.013381386
38	0x3c6ff6d9	0.014646255
39	0x3d4f9263	0.050676715
40	0x3cd4cb62	0.025975887
41	0x3cfb342d	0.030664528
42	0x3ce8cdc7	0.028418435
43	0x3c0eecac	0.008723419
44	0x3c344fb5	0.011005332
45	0x3c88e316	0.016709846
46	0x3c340b1a	0.010988975
47	0x3c0bf064	0.0085412
48	0x3bf189f4	0.0073711816
49	0x3c75740b	0.01498128
50	0x3c3932c3	0.011303606
51	0x3ca49424	0.02009017
52	0x3c889850	0.01667419
53	0x3d09a78c	0.03360705
54	0x3ca58661	0.020205678
55	0x3cd34598	0.02579002
56	0x3ccc8c37	0.024969203
57	0x3c3311e8	0.010929562
58	0x3d35b20e	0.04435926
59	0x3c478b2b	0.012179176
60	0x3c3ab04c	0.0113945715
61	0x3b84e256	0.0040553017
62	0x3cc35ae6	0.023847055
63	0x3cf3622f	0.029709904
64	0x3ce1b6e2	0.027553026
65	0x3c19038c	0.009339225
66	0x3cefd69e	0.029277142
67	0x3c386369	0.01125417
68	0x3c4a56a1	0.0123497555
69	0x3c74b01a	0.014934564
70	0x3c64717b	0.0139430715
71	0x3c2b8367	0.0104683405
72	0x3c6fe848	0.0146427825
73	0x3c12d6e4	0.008962367
74	0x3c901543	0.017588263
75	0x3c8abad0	0.016934782
76	0x3ccded84	0.02513767
77	0x3c6426f6	0.013925305
78	0x3c87c1c7	0.016571892
79	0x3bc345b7	0.0059592384
80	0x3cb10081	0.021606686
81	0x3bc31583	0.005953492
82	0x3bff59c2	0.0077926824
83	0x3c14ed0c	0.0090897195
84	0x3cb2f264	0.021844096
85	0x3d2910e4	0.041275874
86	0x3c9180e9	0.017761664
87	0x3d8408cc	0.0644699
88	0x3c806dbf	0.015677331
89	0x3c957ec0	0.018248916
90	0x3c7bbce3	0.015364858
91	0x3c0d0136	0.008606246
92	0x3cbfd1cd	0.02341547
93	0x3c6b8c79	0.014376753
94	0x3bd9aa26	0.0066425977
95	0x3c8fb00b	0.017539999
96	0x3d0a41b1	0.033754054
97	0x3c202974	0.009775508
98	0x3d129a15	0.035791475
99	0x3c477bcd	0.0121755125
100	0x3c02ec5b	0.007990922
101	0x3c232587	0.009957678
102	0x3cca4bb4	0.024694301
103	0x3cd04e7c	0.02542805
104	0x3c25879d	0.0101031335
105	0x3c7404f5	0.01489376
106	0x3c8377e4	0.01604838
107	0x3c7da77f	0.015481829
108	0x3c3f0946	0.011659926
109	0x3c02d77b	0.007985945
110	0x3d11a6ac	0.03555934
111	0x3d76d093	0.060257506
112	0x3c42a4c3	0.011880103
113	0x3cbc45ce	0.022982504
114	0x3c4c63b0	0.012474939
115	0x3c323096	0.010875842
116	0x3ca468d8	0.020069525
117	0x3c881c27	0.016614987
118	0x3cb9b458	0.022669002
119	0x3d22ca2c	0.039743587
120	0x3b863008	0.0040950812
121	0x3c258047	0.0101013845
122	0x3c6c347c	0.01441681
123	0x3c1a8db9	0.009433203
124	0x3c7b71c2	0.015346946
125	0x3cabd6d6	0.020976465
126	0x3bcefadc	0.006316526
127	0x3c79537b	0.015217657

fc2.weight f4 [64, 128]
0	0x3ce00e55	0.027350584
1	0xbe81eab9	-0.25374392
2	0x3d7f7e65	0.0623764
3	0x3d97be40	0.07409334
4	0x3e3d286b	0.1847245
5	0xbd605adb	-0.054774147
6	0xbda4219b	-0.08014222
7	0x3d772d13	0.06034572
8	0xbc35d71b	-0.011098648
9	0x3d8b0703	0.06788447
10	0xbd1429ec	-0.036172792
11	0x3d95f7ad	0.07322631
12	0x3c506de4	0.0127215125
13	0xbd8375fc	-0.06418988
14	0xbe9ac959	-0.3023174
15	0xbee2dc80	-0.44308853
16	0xbe451b86	-0.1924878
17	0x3b416d0c	0.002951446
18	0x3e60b737	0.21944891
19	0x3c40c436	0.01176553
20	0x3dd2d22b	0.102939926
21	0xbc99fb1a	-0.018796492
22	0x3d0d9eb3	0.034575175
23	0x3dc9bbf4	0.09850302
24	0xbea229e4	-0.31672585
25	0x3e0d801e	0.13818404
26	0xbc39c130	-0.011337563
27	0x3e1aedaf	0.15129732
28	0x3e141786	0.14462098
29	0xbcd090a5	-0.025459597
30	0xbe68615c	-0.2269339
31	0x3d8cbe14	0.06872192
32	0x3e1c828b	0.15284173
33	0x3ca6e843	0.020374423
34	0x3d395b10	0.04525286
35	0xbce47d00	-0.027891636
36	0x3dc7994e	0.097460374
37	0x3d5e96e4	0.05434312
38	0xbef99641	-0.48747447
39	0xbec668a2	-0.38751704
40	0xbdedbcd4	-0.11608282
41	0x3d8b540d	0.06803141
42	0xbca90018	-0.020629928
43	0xbd01466f	-0.03156131
44	0x3d9c6e71	0.076382525
45	0x3b2e6202	0.002660871
46	0xbeef0fe7	-0.4669182
47	0xbd13afe9	-0.036056433
48	0xbdbf782e	-0.09349094
49	0xbeaa4c29	-0.3326123
50	0x3cf5c83f	0.030002711
51	0xbdb94acb	-0.09047469
52	0x3d0eb6ea	0.03484241
53	0xbdc6879c	-0.09693834
54	0xbe3a013d	-0.18164535
55	0x3d8501fc	0.06494519
56	0x3df6cf1c	0.12051222
57	0xbbe1af7e	-0.0068873754
58	0x3c92aaa0	0.017903626
59	0xbd8cb834	-0.068710715
60	0xbe01ea2c	-0.12686986
61	0x3e06b22c	0.13153905
62	0xbd9bd787	-0.07609468
63	0x3e0ce057	0.13757454
64	0xbe88012d	-0.26563397
65	0xbdb7d6ac	-0.08976492
66	0xbea93c7c	-0.33053958
67	0x3e3efe0c	0.18651599
68	0x3ce9ee3d	0.028555984
69	0xbdfa647b	-0.122261964
70	0x3de52d59	0.1119029
71	0xbda34387	-0.07971864
72	0xbddf8ba7	-0.109153084
73	0x3cbe4e25	0.023230622
74	0x3bd634d3	0.006537059
75	0xbda5ffdc	-0.08105442
76	0xbdc049b6	-0.09389059
77	0xbd86cdc0	-0.065822124
78	0x3e332e45	0.17498119
79	0xbe2c3c98	-0.1681999
80	0x3d3fe4e7	0.046849158
81	0x3e20dd2b	0.15709369
82	0xbb17c966	-0.0023160814
83	0xbccb6b2a	-0.024831373
84	0x3c162298	0.009163521
85	0xbe218cf8	-0.15776432
86	0xbe075414	-0.13215667
87	0xbe451eda	-0.1925005
88	0x3d9076c4	0.07053903
89	0x3e36d1bd	0.17853446
90	0xbe8c2d0b	-0.27378115
91	0xbc818d29	-0.01581438
92	0xbcf48226	-0.029847216
93	0xbe39efee	-0.18157932
94	0xbc871723	-0.016490525
95	0xbe12b665	-0.1432739
96	0xbe05882d	-0.13040228
97	0xbd24fc00	-0.04027939
98	0x3df9a598	0.121897876
99	0x3e1ca662	0.15297845
100	0x3cab7b5d	0.020932848
101	0xbda472e7	-0.080297284
102	0x3d3a41f2	0.045473047
103	0x3cfb837a	0.030702341
104	0x3c30fcee	0.010802491
105	0xbd38b190	-0.04509121
106	0x3d4ae306	0.049532913
107	0xbdf0a1e1	-0.11749626
108	0x3e01120b	0.12604539
109	0xbc616518	-0.013757013
110	0xbe7829d1	-0.24234702
111	0xbe25b419	-0.16181983
112	0x3df16ee9	0.117887326
113	0x3d904edc	0.07046291
114	0xbe648f3d	-0.22320266
115	0xbe0dd588	-0.13850987
116	0x3de9c484	0.114144355
117	0xbe38362c	-0.17989415
118	0x3bb31761	0.0054654335
119	0xbe329a2f	-0.17441629
120	0x3e963cbb	0.2934321
121	0x3c8c226b	0.017106256
122	0xbcf88187	-0.030335201
123	0xbe5b8029	-0.21435608
124	0x3e2d74ec	0.16939133
125	0x3e3eada8	0.18620932
126	0x3d447098	0.04795894
127	0xbc194749	-0.009355375
128	0xba5e5322	-0.00084810157
129	0x3dca4d0c	0.09877977
130	0x3c4ba0f7	0.012428514
131	0xbb4e7eda	-0.0031508715
132	0xbda033a3	-0.07822349
133	0xbe281549	-0.1641437
134	0x3e84497f	0.25837323
135	0x3e268af2	0.16263941
136	0xbf05d820	-0.52282906
137	0xbe50b8dd	-0.2038302
138	0x3d33c098	0.043884844
139	0x3ae3c2b3	0.001737675
140	0xbed4193c	-0.41425502
141	0x3dde8774	0.108656794
142	0x3dec21bb	0.11529871
143	0x3d68fe58	0.056883186
144	0xbd32b823	-0.043632638
145	0xbd91d372	-0.07120408
146	0x3e06fe93	0.1318305
147	0xbed886e7	-0.42290422
148	0x3dfe940a	0.1243058
149	0x3e293589	0.16524328
150	0xbd43054e	-0.04761248
151	0x3d167a33	0.036737632
152	0xbde0eb13	-0.10982337
153	0xbc421586	-0.011845952
154	0x3dbb3fb4	0.0914301
155	0x3cd792eb	0.026315173
156	0x3d2eb713	0.042655062
157	0x3e8b8cf4	0.27255976
158	0xbd7045be	-0.05866026
159	0xbc66bfab	-0.014083783
160	0xbbb827de	-0.005619987
161	0x3c979cfa	0.01850747
162	0xbd9d1c0c	-0.07671365
163	0xbd14e171	-0.03634781
164	0x3d471395	0.04860266
165	0xbded9104	-0.11599925
166	0xbd075f8f	-0.033050116
167	0x3de7f203	0.11325457
168	0x3e086dbe	0.13323113
169	0xbdbba846	-0.09162955
170	0x3df23cbc	0.118279904
171	0xbe0a3042	-0.13494971
172	0x3e04a53d	0.12953658
173	0xbd011bd3	-0.031520676
174	0x3ccddb0d	0.025128866
175	0x3e713542	0.23555472
176	0xbd71cd2b	-0.059033554
177	0xbde4e0d4	-0.11175695
178	0x3b20e025	0.0024547663
179	0xbce57474	-0.02800963
180	0x3db7f09d	0.0898144
181	0x3d332351	0.043734852
182	0x3e199fd9	0.15002383
183	0x3d65b2f4	0.056078866
184	0xbd825a61	-0.06364895
185	0xbeefc6b1	-0.46831277
186	0xbe7bde3e	-0.24596497
187	0xbe44490c	-0.1916849
188	0xbeb59100	-0.3546219
189	0xbe1e2841	-0.15445043
190	0x3ddb8474	0.10718623
191	0x3e397973	0.18112735
192	0xbe6aba8d	-0.22922726
193	0x3bd40157	0.0064698863
194	0x3db2b87c	0.08726594
195	0x3e23e870	0.16006637
196	0xbdb4f07f	-0.088349335
197	0xbd637c47	-0.055538442
198	0x3cf87f15	0.030334035
199	0xbd84dfc5	-0.06487993
200	0x3c5d0582	0.013490083
201	0x3e354e59	0.17705669
202	0x3e4cc74e	0.19997904
203	0xbe126b52	-0.14298752
204	0xbdf74311	-0.12073339
205	0xbd8422df	-0.06451964
206	0x3e1e012c	0.15430135
207	0xbd829096	-0.06375234
208	0x3cda77bf	0.026668428
209	0x3df53fe6	0.11975078
210	0x3dc2eaf3	0.09517469
211	0xbd1e6bdd	-0.038677085
212	0x3d8fa9c3	0.07014801
213	0xbd67c454	-0.056583717
214	0x3df5deef	0.12005412
215	0xbc8dfcde	-0.01733249
216	0x3e05b96b	0.13059013
217	0x3dd7a16f	0.10528838
218	0x3e4b51e7	0.19855462
219	0x3e2bb849	0.16769518
220	0xbe773598	-0.24141538
221	0xbe7664e4	-0.24061924
222	0xbd75f4a2	-0.060047753
223	0x3df5f0f2	0.12008847
224	0xbe655ebb	-0.22399418
225	0xbd0f775b	-0.035025936
226	0x3d58424f	0.05279761
227	0x3e2ccea0	0.16875696
228	0x3c93ce1e	0.01804262
229	0xbd6676a9	-0.056265507
230	0x3cfb95b5	0.030711034
231	0x3cfc9f51	0.030837687
232	0xbdb0e6dd	-0.08637784
233	0x3d907760	0.07054019
234	0x3dcad5e4	0.09904078
235	0xbee66234	-0.44996798
236	0xbd5fabca	-0.05460719
237	0x3daa40f1	0.08313168
238	0x3ba0dc9c	0.004909111
239	0x3dd2289f	0.10261654
240	0xbe5b9269	-0.2144257
241	0x3e305943	0.1722155
242	0x3ce3d8e1	0.027813377
243	0xbe422996	-0.18961176
244	0x3ded125b	0.11575767
245	0xbe65dcca	-0.22447506
246	0x3d1daf5d	0.038497318
247	0x3cc021b2	0.023453567
248	0x3adfb318	0.0017066924
249	0x3e332fcd	0.17498703
250	0x3d2f6d2b	0.04282872
251	0x3d530210	0.05151564
252	0xbe391519	-0.18074454
253	0x3d8b9cf1	0.068170436
254	0x3de16722	0.11005999
255	0x3dae4b3d	0.08510444

fc2.bias f4 [64]
0	0xbdcd58f4	-0.10026732
1	0x3d526a1a	0.051370718
2	0xbc000abe	-0.007815061
3	0xbdcb8d5d	-0.09939072
4	0x3dead11e	0.11465667
5	0xbdf4e22f	-0.119572036
6	0x3e3fb507	0.187214
7	0xbd350213	-0.04419143
8	0x3d9f8021	0.077881105
9	0x3cd07cac	0.025450073
10	0x3e9cbe4e	0.3061394
11	0xbdc0184e	-0.09379636
12	0xbdfde554	-0.123972565
13	0x3d91cffa	0.071197465
14	0x3e74978c	0.23885936
15	0xbe3426ff	-0.17593001
16	0x3cde8ee4	0.027167745
17	0xbdb40943	-0.08790829
18	0x3b561a57	0.0032669508
19	0x3cd70764	0.026248641
20	0xbe1618f5	-0.14657958
21	0xbd2b35d4	-0.04179938
22	0x3e9793ef	0.29605052
23	0x3dbfd0e6	0.09366016
24	0xbca4848c	-0.020082735
25	0xbd85bb0d	-0.06529818
26	0x3e05a9af	0.1305301
27	0x3e209301	0.15681078
28	0x3afc0f64	0.0019230661
29	0xbc963960	-0.018337905
30	0xbeb4262f	-0.35185382
31	0x3d90522a	0.070469216
32	0xbe32e1ba	-0.1746892
33	0xbeaa0822	-0.3320933
34	0xbb87322f	-0.0041258554
35	0x3e235e36	0.15953907
36	0x3dcb11b5	0.09915487
37	0xbcf65ef1	-0.030074568
38	0xbe5459c9	-0.20737375
39	0x3e0af94b	0.1357166
40	0x3e07ade4	0.13249928
41	0xbc934997	-0.017979426
42	0xbeb98d74	-0.36240733
43	0x3ed282ed	0.41115513
44	0xbdbf2863	-0.09333875
45	0x3e1c3529	0.15254654
46	0xbdad3402	-0.08457185
47	0x3e443d1e	0.1916394
48	0xbd875ac7	-0.06609111
49	0x3e474de3	0.19463305
50	0xbc4d2710	-0.01252152
51	0xbdc2a4d5	-0.095040955
52	0x3c1da625	0.0096221315
53	0xbe19026f	-0.14942335
54	0x3cb270ca	0.021782298
55	0x3c9e6ae0	0.019338071
56	0xbe2e5b8c	-0.1702711
57	0xbcad2acc	-0.021138571
58	0xbd0284b4	-0.031864837
59	0xbe0efb65	-0.13963087
60	0x3dcf67b7	0.10127204
61	0x3dd4a66d	0.10383306
62	0xbe54afd1	-0.20770194
63	0x3d01545b	0.03157459

bn2.weight f4 [64]
0	0x3f5f6c3d	0.87274534
1	0x3f5e8550	0.8692217
2	0x3f5e6162	0.86867344
3	0x3f3d065e	0.7383784
4	0x3f549e83	0.8305437
5	0x3f3e27e6	0.7427963
6	0x3f44b1cc	0.76833797
7	0x3f4e3866	0.8055481
8	0x3f3bb7e1	0.7332745
9	0x3f26613b	0.6499211
10	0x3f5fab44	0.87370706
11	0x3f43f19b	0.76540536
12	0x3f494bbf	0.78631204
13	0x3f4a2b1e	0.7897204
14	0x3f44eef2	0.769271
15	0x3f34f481	0.70685583
16	0x3f4ec65f	0.8077144
17	0x3f5e5a9f	0.86857027
18	0x3f4c9ea7	0.79929584
19	0x3f4d6916	0.80238473
20	0x3f389c48	0.72113466
21	0x3f5b1e0d	0.8559273
22	0x3f4f794f	0.8104448
23	0x3f2e03fa	0.6797482
24	0x3f36f0a1	0.7146092
25	0x3f580f2e	0.8439816
26	0x3f3b4944	0.7315867
27	0x3f3646f7	0.71202034
28	0x3f603dca	0.8759428
29	0x3f4094a8	0.7522683
30	0x3f4f15d3	0.80892676
31	0x3f3fdb8d	0.7494438
32	0x3f593536	0.8484682
33	0x3f3cacae	0.7370099
34	0x3f3f02fc	0.7461393
35	0x3f4bae94	0.7956326
36	0x3f61a9c1	0.8814965
37	0x3f486866	0.782843
38	0x3f438218	0.7637038
39	0x3f3712c3	0.71513003
40	0x3f4cb0af	0.799571
41	0x3f3edf86	0.7455982
42	0x3f52afc5	0.82299453
43	0x3f3f7264	0.7478392
44	0x3f582c23	0.8444235
45	0x3f5f986e	0.87341964
46	0x3f3824d6	0.7193121
47	0x3f668d29	0.90059143
48	0x3f6db47f	0.9285354
49	0x3f2c7fb2	0.6738235
50	0x3f5fdecf	0.87449354
51	0x3f481a53	0.7816517
52	0x3f4912ef	0.78544515
53	0x3f2c2825	0.67248756
54	0x3f64c483	0.89362353
55	0x3f5c5f0f	0.8608255
56	0x3f60a181	0.87746435
57	0x3f75bc12	0.959901
58	0x3f3b809c	0.7324312
59	0x3f48fde5	0.7851241
60	0x3f379bad	0.7172192
61	0x3f4e9283	0.8069231
62	0x3f653da8	0.89547205
63	0x3f51feed	0.8202961

bn2.bias f4 [64]
0	0xbecb03c8	-0.39651322
1	0xbe6e760b	-0.23287217
2	0xbe4d4626	-0.20046291
3	0xbe8c2018	-0.27368236
4	0xbe79d270	-0.24396682
5	0xbedc69ac	-0.4304937
6	0xbe32661b	-0.17421763
7	0xbedbc917	-0.42926857
8	0xbf07c7b5	-0.53039104
9	0xbed4defe	-0.4157638
10	0xbe4d1910	-0.20029092
11	0xbea281a4	-0.31739533
12	0xbe897bc7	-0.26852247
13	0xbecccdab	-0.40000662
14	0xbea8808b	-0.3291057
15	0xbec5ba34	-0.38618624
16	0xbe73dd14	-0.23814803
17	0xbe33b4f7	-0.17549501
18	0xbea853bd	-0.32876387
19	0xbedcba09	-0.43110684
20	0xbecc80a5	-0.39941898
21	0xbe886c48	-0.26645112
22	0xbebda205	-0.37037674
23	0xbf0a67fc	-0.5406492
24	0xbec7e6fe	-0.3904342
25	0xbe2a9fe8	-0.16662562
26	0xbea76568	-0.32694554
27	0xbed68dfa	-0.41905195
28	0xbe5bd50a	-0.21467987
29	0xbf070fc9	-0.5275846
30	0xbee1af6e	-0.44079155
31	0xbee6663d	-0.44999877
32	0xbed00cbd	-0.4063472
33	0xbf12f5be	-0.5740622
34	0xbeac9d5e	-0.33713812
35	0xbe4519bd	-0.192481
36	0xbe8ed6ac	-0.27898157
37	0xbe77816a	-0.24170461
38	0xbea303e0	-0.31838894
39	0xbdd474ea	-0.10373862
40	0xbe3346a4	-0.17507416
41	0xbee15958	-0.44013476
42	0xbea1af2c	-0.31578958
43	0xbea3b954	-0.31977332
44	0xbe90fc02	-0.28317267
45	0xbe7a7eb0	-0.2446239
46	0xbea0c319	-0.31398848
47	0xbe282bf7	-0.16423021
48	0xbe37220c	-0.17884082
49	0xbeb68c78	-0.35654044
50	0xbe5db230	-0.21650004
51	0xbea5c864	-0.32379448
52	0xbe8612f0	-0.26186323
53	0xbec4c5b5	-0.38432088
54	0xbe5e3565	-0.21700056
55	0xbddaf1bf	-0.10690641
56	0xbe5dd239	-0.21662225
57	0xbdcd85de	-0.10035299
58	0xbed0698b	-0.40705523
59	0xbea0fe42	-0.31443983
60	0xbeba95bc	-0.36442363
61	0xbdb584d6	-0.08863227
62	0xbe4111be	-0.18854424
63	0xbe453b94	-0.19261009

bn2.running_mean f4 [64]
0	0xbf52893b	-0.8224065
1	0xbe150b2d	-0.14555044
2	0xbf8e66ed	-1.112516
3	0xbfa7def8	-1.311492
4	0xbd575dd5	-0.05257972
5	0xbead47de	-0.33843893
6	0x3dc7122e	0.097202644
7	0xbf3077cc	-0.68932796
8	0xbfb7422d	-1.431707
9	0x3d8f2609	0.069896765
10	0xbebdcf42	-0.37072188
11	0xbfa6c24d	-1.3028046
12	0xbefe153b	-0.49625573
13	0xbced5593	-0.028971469
14	0xbf99c9ee	-1.2014749
15	0xbedf3452	-0.43594605
16	0xbf1593ba	-0.5842854
17	0xbf55477b	-0.83312196
18	0xbf8ad6c0	-1.0846786
19	0xbf08893c	-0.53334403
20	0xbf510810	-0.8165293
21	0xbf44129c	-0.76590896
22	0xbee4967b	-0.44646057
23	0x3f4fe0a5	0.81202155
24	0xbf8d3d31	-1.1034299
25	0xbfc27e12	-1.5194724
26	0xbf286985	-0.6578601
27	0xbf8ee155	-1.1162516
28	0xbf2e5c51	-0.68109614
29	0xbf27cb30	-0.65544415
30	0xbfd4a383	-1.66124
31	0xbfbbdbfc	-1.4676509
32	0xbb0a3f14	-0.0021094726
33	0xbfdce06a	-1.7255986
34	0xbfbd9fd9	-1.4814407
35	0xbf37e1a7	-0.71828693
36	0xbe37848c	-0.17921656
37	0x3c4d5260	0.012531847
38	0xbf594700	-0.8487396
39	0xbf3382b5	-0.7012132
40	0xbf05a796	-0.5220884
41	0xbfad4c12	-1.353884
42	0xbf8edb98	-1.1160765
43	0xbf44e6be	-0.76914585
44	0xbf4fe49b	-0.812082
45	0xbf13e554	-0.577718
46	0xbf89a203	-1.0752567
47	0xbee74975	-0.4517323
48	0xbf5cd7f0	-0.86266994
49	0xbf51cfb3	-0.8195755
50	0xbf71f783	-0.945183
51	0xbf98bd26	-1.1932724
52	0xbf32bf0e	-0.69822776
53	0xbf56aaf1	-0.83854586
54	0xbf4f3742	-0.8094369
55	0xbf4e82a6	-0.80668104
56	0xbf3e23dc	-0.7427347
57	0xbee6fbb1	-0.451139
58	0xbf75c542	-0.96004117
59	0xbf556d9a	-0.83370364
60	0xbf05b526	-0.52229536
61	0xbf4627ee	-0.7740468
62	0xbf591b49	-0.8480726
63	0xbedbba9a	-0.42915803

bn2.running_var f4 [64]
0	0x3f91c170	1.1387157
1	0x3fe2029a	1.7657044
2	0x3f9e6bc1	1.2376634
3	0x3ff68624	1.9259686
4	0x3fc91478	1.5709372
5	0x3f83f893	1.0310234
6	0x400095e2	2.0091481
7	0x3f9ba0c3	1.2158436
8	0x3f75ce5f	0.9601802
9	0x3f51e67b	0.8199231
10	0x3fbda786	1.4816749
11	0x40032dd3	2.049672
12	0x3fd60a40	1.6721878
13	0x3f23c258	0.6396842
14	0x3f204472	0.6260444
15	0x3fa0a0fb	1.2549127
16	0x40123ca3	2.284951
17	0x3fa5adf4	1.2943711
18	0x3f562e1d	0.83664113
19	0x3f95dc5a	1.1707871
20	0x3fcef58f	1.6168689
21	0x3fba7944	1.4568257
22	0x3f466cb1	0.775096
23	0x3f28ed25	0.65986854
24	0x3fe19268	1.7622805
25	0x3f8c0266	1.0938232
26	0x3ffe2851	1.9856054
27	0x400bca3d	2.1842186
28	0x3f8b005b	1.0859483
29	0x3fdb5b9c	1.7137332
30	0x3fa7ba75	1.3103777
31	0x401c030f	2.4376867
32	0x3fbe3d65	1.4862486
33	0x3f6ba196	0.92043436
34	0x3f3233fe	0.69610584
35	0x3ffebc62	1.990124
36	0x40057b2c	2.0856428
37	0x3f60c5f1	0.87802035
38	0x3fd36ef2	1.6518233
39	0x3f49ba1c	0.78799605
40	0x3fdef521	1.7418557
41	0x3fa124ca	1.2589352
42	0x3fbc2c11	1.4700948
43	0x3faec9e4	1.3655362
44	0x3f8e58e5	1.1120878
45	0x3f8991e5	1.0747648
46	0x3fdf4a61	1.7444574
47	0x3f63ed42	0.890339
48	0x3ff521aa	1.9150898
49	0x3fca6f9a	1.5815308
50	0x3fe12431	1.758917
51	0x4000444b	2.0041683
52	0x3f0bcc03	0.5460817
53	0x3ff3255d	1.8995777
54	0x3ff58213	1.918032
55	0x3ff6061a	1.9220612
56	0x3fa8fe6e	1.3202646
57	0x3f732ab4	0.94987035
58	0x3f814376	1.0098712
59	0x3f8f48d4	1.11941
60	0x3faf86f2	1.3713057
61	0x3fee8254	1.8633523
62	0x3f6cc016	0.924806
63	0x3f9a53f1	1.2056867

fc3.weight f4 [32, 64]
0	0xbe4b4803	-0.19851689
1	0x3e2b05ea	0.16701475
2	0xbe073645	-0.13204296
3	0xbd167259	-0.036730144
4	0xbdf3cf94	-0.11904827
5	0xbd4e5534	-0.050374225
6	0x3c9a8708	0.018863216
7	0xbe443c3f	-0.19163607
8	0x3e21dc60	0.15806723
9	0x3e16fd81	0.14745142
10	0x3d1e5f82	0.038665302
11	0xbc9919f5	-0.018689135
12	0xbea2bcb1	-0.31784585
13	0xbe5097c0	-0.20370388
14	0x3ddd5314	0.108068615
15	0xbe2f59f9	-0.17124166
16	0xbe042df8	-0.1290816
17	0xbe468a37	-0.19388662
18	0x3e132d6e	0.14372799
19	0xbe7e48b9	-0.24832429
20	0xbdf92be6	-0.12166576
21	0xbdba8696	-0.091077015
22	0xbdbb5eab	-0.09148916
23	0x3c80e925	0.015736172
24	0xbd62e207	-0.055391338
25	0xbe15dd91	-0.14635302
26	0x3cbc47a9	0.022983389
27	0x3dcf888a	0.10133465
28	0xbec2af45	-0.38024345
29	0xbe9f9251	-0.31166318
30	0xbe190e5d	-0.14946885
31	0xbc5e5238	-0.013569407
32	0x3e06f5a0	0.13179636
33	0x3e41821d	0.1889729
34	0x3e0457fe	0.12924191
35	0xbe962ba7	-0.2933018
36	0x3d9a4338	0.07532352
37	0xbe69eeaf	-0.22844957
38	0xbe2a9296	-0.1665748
39	0x3c7de51c	0.015496518
40	0xbe9fa6f9	-0.31182078
41	0xbdc7944c	-0.09745082
42	0xbdff02ee	-0.12451731
43	0x3e32f3fd	0.17475887
44	0xbe514178	-0.2043513
45	0xbe2930d7	-0.16522537
46	0xb91ffb10	-0.0001525695
47	0xbee4f83a	-0.44720632
48	0xbe094887	-0.13406573
49	0x3db7e7b6	0.08979742
50	0x3d932890	0.07185471
51	0xbd8519ed	-0.064990856
52	0xbc39bec0	-0.011336982
53	0xbba67997	-0.0050804126
54	0xbe339d3c	-0.17540449
55	0xbd465284	-0.048418537
56	0x3c3c01ca	0.011475036
57	0xbda9e5fb	-0.082958184
58	0x3db46450	0.088081956
59	0xbdc8c39b	-0.09802934
60	0xbe1c3a15	-0.15256532
61	0x3da18f39	0.07888646
62	0xbe6b6c1a	-0.22990456
63	0x3c651ba7	0.013983644
64	0xbe8f0e71	-0.27940705
65	0xbe07d51c	-0.13264889
66	0x3d7ca96b	0.061685007
67	0x3d887cbd	0.06664417
68	0x3d23e707	0.040015247
69	0x3e891e29	0.26780823
70	0xbd930366	-0.071783826
71	0xbe56b61d	-0.20967908
72	0xbdd6cad0	-0.10487902
73	0xbca9dcf7	-0.020735247
74	0xbe739982	-0.23789027
75	0xbd37355a	-0.044728614
76	0xbcca8614	-0.024722137
77	0x3e0f66ac	0.1400401
78	0x3dba402a	0.090942696
79	0xbde63655	-0.11240832
80	0xbbb011d7	-0.0053732204
81	0xbe11ec70	-0.1425035
82	0xbc9e5312	-0.01932672
83	0x3e887f93	0.2665983
84	0x3dc994c7	0.0984283
85	0xbe68cae8	-0.22733653
86	0xbe818edc	-0.25304306
87	0xbbe3753f	-0.006941467
88	0x3e273922	0.16330388
89	0x3e81210e	0.2522053
90	0x3d7d7892	0.061882563
91	0xbd062487	-0.03274968
92	0x3cfd3254	0.030907787
93	0x3d553ac3	0.052057993
94	0x3e3220a4	0.17395264
95	0xbc8f3bff	-0.017484663
96	0xbda2b156	-0.079439804
97	0x3e152fdb	0.14569037
98	0x3e33bcf0	0.17552543
99	0xbe55c1f7	-0.20874773
100	0xbd2c03ea	-0.04199592
101	0xbe60ab1f	-0.21940278
102	0x3d92b501	0.0716343
103	0x3ca3560e	0.019938495
104	0xbc72403e	-0.014785824
105	0x3de00f75	0.10940448
106	0xbe96b019	-0.29431227
107	0x3c52c712	0.012864845
108	0x3d1a0eb4	0.03761168
109	0xbdb16229	-0.08661301
110	0xbdc3724d	-0.095432855
111	0x3d316025	0.04330458
112	0xbe51175a	-0.20419064
113	0x3d243da7	0.04009786
114	0xbe1a89d9	-0.15091647
115	0xbc3b5935	-0.011434843
116	0x3e59b4be	0.21260354
117	0xbd26adfb	-0.040693264
118	0xbe6c63ce	-0.23084947
119	0xbe3ae10e	-0.18249914
120	0xbe218c84	-0.15776259
121	0x3ea2f017	0.318238
122	0x3e0ea91b	0.13931696
123	0xbcfcbe6b	-0.030852517
124	0xbe1989ee	-0.14994022
125	0xbe076b2e	-0.1322448
126	0xbda33372	-0.07968797
127	0xbdad71d4	-0.084689766
128	0xbe4e4ec0	-0.20147228
129	0xbd8dd912	-0.069261685
130	0xbdbc5ff6	-0.091979906
131	0x3d7a9241	0.061174635
132	0xbd5026a9	-0.05081812
133	0xbdc3dd29	-0.09563667
134	0xbc88bbf5	-0.016691187
135	0xbe5ce715	-0.21572526
136	0x3f0f0465	0.5586608
137	0x3e0e48ab	0.13894908
138	0x3d0f1777	0.034934487
139	0xbd97169f	-0.073773615
140	0x3c8d1727	0.017222954
141	0xbe3ab7d2	-0.18234184
142	0x3e0b6475	0.1361254
143	0xbdf7f58c	-0.12107381
144	0xbd705d44	-0.058682695
145	0xbe2773cd	-0.16352768
146	0x3e565540	0.20930958
147	0xbe1c29fd	-0.15250392
148	0xbe28f41b	-0.16499369
149	0xbd6388ab	-0.05555026
150	0xbde2540b	-0.11051186
151	0xbcf24ac0	-0.02957666
152	0x3ca4e56c	0.020128928
153	0xbdf736bf	-0.12070989
154	0xbac0b23e	-0.0014701558
155	0x3d2ee183	0.042695533
156	0xbeb0b1e6	-0.34510726
157	0xbe7a4ca9	-0.24443306
158	0xbe0befbb	-0.13665669
159	0x3d33fa53	0.0439399
160	0xbd408754	-0.04700406
161	0x3e6af1f6	0.22943863
162	0x3e2bdd31	0.16783597
163	0x3d9cb636	0.076519415
164	0xbe6e9252	-0.23298004
165	0x3dad6b5b	0.08467742
166	0xbe9e29d0	-0.30891275
167	0x3d708416	0.058719717
168	0xbd6c3537	-0.057667937
169	0x3c4398f5	0.011938323
170	0x3b1a8234	0.0023576142
171	0x3e88b683	0.26701745
172	0x3da668e8	0.08125478
173	0x3e5fcf46	0.21856412
174	0x3db40925	0.08790807
175	0x3cd32970	0.025776595
176	0xbe556397	-0.20838772
177	0x3d99a494	0.07502094
178	0x3d6e124a	0.05812291
179	0x3d087030	0.033310115
180	0x3d3d8a41	0.046274427
181	0xbbb1bc14	-0.005424032
182	0xbdf93cc2	-0.12169792
183	0x3d7d87ad	0.06189697
184	0x3da604d7	0.08106392
185	0xbd58fd27	-0.0529758
186	0x3dc6fb55	0.097159065
187	0x3c6dd357	0.014515719
188	0xbea1fb5f	-0.31637093
189	0x3d7e408d	0.06207328
190	0xbe8c0593	-0.27348003
191	0x3a84b06b	0.0010123377
192	0xbe42477a	-0.18972579
193	0xbc352651	-0.011056499
194	0xbcadd270	-0.021218508
195	0xbd48e7cb	-0.04904918
196	0xbe1d8331	-0.15382077
197	0xbdafe811	-0.08589185
198	0xbe1ef985	-0.15524872
199	0xbe6c302e	-0.23065254
200	0xbcaa654c	-0.020800255
201	0x3d94ca48	0.072651446
202	0xbd58b4cd	-0.0529068
203	0xbd9d433b	-0.07678839
204	0xbecc3ff8	-0.39892554
205	0xbe94f346	-0.29091853
206	0x3e3c50b7	0.18390165
207	0xbe043dd9	-0.12914218
208	0xbedb176e	-0.42791313
209	0xbd99daa7	-0.07512408
210	0x3d04d364	0.03242816
211	0xbd912acd	-0.07088242
212	0xbdfa0aac	-0.12209067
213	0xbde99aae	-0.11406456
214	0xbd0f0b5e	-0.03492295
215	0x3e387e6e	0.18016979
216	0xbe0feaa7	-0.14054357
217	0xbe2d8134	-0.16943818
218	0xbd234b7e	-0.039866917
219	0x3dff7ef4	0.12475386
220	0xbd3c4db5	-0.045972545
221	0xbf03023b	-0.5117528
222	0xbdbfce41	-0.09365512
223	0xbd1a071b	-0.037604433
224	0x3d94ce84	0.07265952
225	0x3da992d5	0.08279959
226	0x3e30c6f0	0.17263389
227	0xbe44af9b	-0.19207613
228	0xbce5fb38	-0.028073892
229	0xbe16e0d2	-0.147342
230	0xbee0f1c1	-0.43934444
231	0x3d360fc8	0.044448644
232	0xbea59eca	-0.3234771
233	0xbe1da970	-0.15396667
234	0xbe6db5b6	-0.23213848
235	0x3dc3be17	0.09557741
236	0xbe0c25f5	-0.13686354
237	0xbe18582a	-0.14877382
238	0xbcd82e70	-0.02638933
239	0xbe5664cc	-0.20936888
240	0xbcf57ba5	-0.029966185
241	0x3cc1063d	0.023562545
242	0xbd2b6bae	-0.04185074
243	0x3c9216be	0.01783311
244	0x3de576b9	0.11204285
245	0xbcd4d04a	-0.025978226
246	0xbd293b4b	-0.04131631
247	0xbe120bd3	-0.14262323
248	0x3de9928b	0.11404904
249	0xbd2e7bb3	-0.042598438
250	0x3d62a9f2	0.055337854
251	0x3d68ebd9	0.056865547
252	0xbea6b944	-0.3256322
253	0x3d9fec3a	0.078087285
254	0xbe8cf552	-0.27530915
255	0xbc7cd2fb	-0.015431161

fc3.bias f4 [32]
0	0xbcf06a98	-0.029347703
1	0xbe6771ef	-0.22602056
2	0xbe41bdf9	-0.18920125
3	0x3c9f1199	0.01941757
4	0xbc5fa07b	-0.013649101
5	0xbe19b491	-0.15010287
6	0x3b0c4673	0.0021404296
7	0x3e5d82fd	0.21632
8	0xbe65b8b3	-0.22433738
9	0xbd8b18c1	-0.06791831
10	0xbd1e4dc7	-0.038648393
11	0xbd256dc1	-0.040387873
12	0x3d3f0e59	0.046644542
13	0xbd409070	-0.047012746
14	0x3d223cab	0.03960864
15	0x3ec7e12d	0.39038983
16	0xbe3bb142	-0.18329337
17	0x3c8dbe62	0.017302696
18	0xbd41b4e0	-0.047291636
19	0xbe41fe7d	-0.18944736
20	0x3debb8fe	0.11509894
21	0xbe268182	-0.16260341
22	0xbde6f8d4	-0.11277929
23	0x3e89a87a	0.2688635
24	0x3d19d638	0.03755781
25	0x3dcd9a68	0.10039216
26	0x3e4ecc7b	0.2019519
27	0xbe4ba565	-0.19887312
28	0x3e869a23	0.26289472
29	0xbd8b7531	-0.06809462
30	0x3dd6db29	0.1049102
31	0xbdccb91e	-0.09996246

bn3.weight f4 [32]
0	0x3fdc5416	1.7213161
1	0x3fe25008	1.7680674
2	0x3fcd78f4	1.6052537
3	0x3fe2936f	1.7701243
4	0x3fdfba06	1.7478645
5	0x3fe225f6	1.7667835
6	0x3fe6623c	1.7998729
7	0x3fe5cdca	1.7953427
8	0x3fe6fc03	1.8045658
9	0x3fe66364	1.7999082
10	0x3fd7a563	1.6847347
11	0x3fdb7dd8	1.714778
12	0x3fd9434f	1.6973666
13	0x3fd878a0	1.6911812
14	0x3fe44fe0	1.7836876
15	0x3fd9850b	1.6993726
16	0x3fe532fd	1.7906185
17	0x3fd551a1	1.6665536
18	0x3fd6b4e1	1.677395
19	0x3fdf0205	1.7422491
20	0x3fd503a1	1.6641732
21	0x3fe0c2b5	1.755942
22	0x3fe5d36e	1.7955148
23	0x3fda7ec3	1.7069935
24	0x3ff0e0c4	1.8818593
25	0x3feb089b	1.8362001
26	0x3fe733af	1.8062648
27	0x3fe0ba86	1.7556922
28	0x3fe4e03f	1.7880934
29	0x3fdbf680	1.7184601
30	0x3fd0505f	1.6274527
31	0x3fd24ea8	1.6430254

bn3.bias f4 [32]
0	0x3f88ecb9	1.0697242
1	0x3f447015	0.76733524
2	0x3f891df6	1.0712268
3	0x3f84672e	1.0343988
4	0x3f81e4eb	1.0147985
5	0x3f3b8a05	0.73257476
6	0x3f64e413	0.89410514
7	0x3f283a2e	0.65713775
8	0x3f63d0f3	0.88990706
9	0x3f5cbae1	0.86222655
10	0x3f809a04	1.0047002
11	0x3f474310	0.77836704
12	0x3f8fd1c5	1.1235892
13	0x3f55ecbf	0.8356437
14	0x3f3e9e10	0.74459934
15	0x3f803a6c	1.0017829
16	0x3f5715c0	0.8401756
17	0x3f71c42c	0.9443996
18	0x3f4bc1ea	0.79592764
19	0x3f6d0bae	0.92595947
20	0x3f5bf0f8	0.85914564
21	0x3f637bfe	0.8886107
22	0x3f85afe7	1.0444306
23	0x3f8d17d1	1.1022893
24	0x3f68835b	0.9082543
25	0x3f60a4f5	0.87751704
26	0x3f4fbf05	0.8115085
27	0x3f40b0bd	0.7526968
28	0x3f5e17fa	0.86755335
29	0x3f495ebc	0.7866018
30	0x3f86b96c	1.0525336
31	0x3f8a9de2	1.0829432

bn3.running_mean f4 [32]
0	0xbf75b292	-0.959756
1	0xbf10c496	-0.56549966
2	0xbf05e911	-0.52308756
3	0xbf6dc232	-0.92874444
4	0xbf66257a	-0.89900935
5	0xbe8703da	-0.26370126
6	0xbf0c6ede	-0.5485667
7	0xbea1f56f	-0.31632563
8	0xbf49243d	-0.7857092
9	0xbf39a409	-0.7251592
10	0xbcbee80d	-0.02330401
11	0x3ec2f9b8	0.38081145
12	0xbf6ffbc7	-0.93743557
13	0xbf5da9c2	-0.86587155
14	0x3ecc4120	0.39893436
15	0xbf3aa317	-0.72905105
16	0xbf1cb52e	-0.6121396
17	0xbd427cda	-0.04748235
18	0x3ed70310	0.41994524
19	0xbe8e1266	-0.27748412
20	0xbdc2a869	-0.09504778
21	0xbf777a5c	-0.9667108
22	0xbf3684d5	-0.71296436
23	0xbf327124	-0.6970389
24	0xbdc8398f	-0.097766034
25	0xbee8a0a2	-0.45435053
26	0xbed43b08	-0.41451287
27	0xbf7cbc29	-0.9872461
28	0xbe35cf31	-0.17754818
29	0xbef120d5	-0.4709536
30	0x3e24dfdd	0.16101022
31	0xbf66d5af	-0.90169805

bn3.running_var f4 [32]
0	0x3f36c1be	0.7138938
1	0x3f78ba20	0.97159004
2	0x3ed234ac	0.4105581
3	0x3f6ecc76	0.9328073
4	0x3f2734e8	0.65315104
5	0x3f1cc395	0.61235934
6	0x3f7fc1bb	0.99904984
7	0x3f9268fd	1.143829
8	0x3f727072	0.9470283
9	0x3eab6f31	0.3348327
10	0x3ef81f03	0.4846116
11	0x3f404c67	0.7511658
12	0x3f3aad26	0.72920454
13	0x3f9ed900	1.2409973
14	0x3f4cb499	0.7996307
15	0x3f92596d	1.143354
16	0x3faa674f	1.3312777
17	0x3f2528ab	0.6451518
18	0x3f41e330	0.75737286
19	0x3f726f57	0.9470114
20	0x3f633c57	0.88763946
21	0x3f1ddb01	0.616623
22	0x3efaf81d	0.4901742
23	0x3f72026b	0.9453494
24	0x3f474acd	0.7784851
25	0x3fb9953e	1.449867
26	0x3f0597b1	0.5218459
27	0x3f9962b7	1.198325
28	0x3fa58c8a	1.2933514
29	0x3f962843	1.1731037
30	0x3f0cb906	0.54969823
31	0x3f288b51	0.6583758

output.weight f4 [1, 32]
0	0x3f4eb1f6	0.80740297
1	0x3f63cdf8	0.8898616
2	0x3f7115e9	0.9417406
3	0x3f502e61	0.8132077
4	0x3f5c973a	0.86168253
5	0x3f4e6ed1	0.8063784
6	0x3f501da0	0.81295204
7	0x3f722aaf	0.9459638
8	0x3f4dd850	0.8040819
9	0x3f54dedb	0.8315255
10	0x3f662e14	0.8991406
11	0x3f4b69ca	0.79458296
12	0x3f50e5ea	0.8160082
13	0x3f641b36	0.8910402
14	0x3f4e27f2	0.805297
15	0x3f4c3bff	0.79779047
16	0x3f54ea50	0.8317003
17	0x3f538601	0.8262635
18	0x3f4adddd	0.79244787
19	0x3f4cead5	0.80045825
20	0x3f6ad46e	0.9173039
21	0x3f6c19cd	0.9222687
22	0x3f5a808b	0.8535239
23	0x3f51499d	0.8175295
24	0x3f5a0041	0.8515664
25	0x3f4bde69	0.79636246
26	0x3f52b79c	0.82311416
27	0x3f6c9c33	0.9242584
28	0x3f5a1a57	0.8519644
29	0x3f6d4bfc	0.9269407
30	0x3f61ee09	0.8825384
31	0x3f523608	0.82113695

x_train_min f4 [1, 16]
0	0xbfbd714c	-1.48002
1	0x40247a63	2.56997
2	0x47c01164	98338.78
3	0x414b122f	12.691939
4	0x00000000	0.0
5	0xc279aedc	-62.42076
6	0x3e29e000	0.16589355
7	0x00000000	0.0
8	0x42761b09	61.5264
9	0x3f8cfee8	1.1015291
10	0x42b60000	91.0
11	0x00000000	0.0
12	0x3e4ccccd	0.2
13	0x3ba8bbff	0.005149364
14	0x3cbc2ca5	0.022970507
15	0x3e35dc3e	0.17759797

x_train_max f4 [1, 16]
0	0x41dff4ad	27.99447
1	0x4210b1f9	36.1738
2	0x47c79320	102182.25
3	0x429f0eb9	79.528755
4	0x3ee71000	0.45129395
5	0x43851e8d	266.23868
6	0x3eb51000	0.3536377
7	0x3f800000	1.0
8	0x4289f3cb	68.97616
9	0x3fa35b3e	1.276222
10	0x46abe000	22000.0
11	0x413ccccd	11.8
12	0x3f4ccccd	0.8
13	0x40d576e8	6.670765
14	0x413fb100	11.980713
15	0x41d4ab65	26.583689
